Layer name,Ifmap height,ifmap width,filter height,filter width,channels,num filters,strides,
Layer 1,1024,8192,1,8192,1,16384,1,
Layer 2,1024,8192,1,8192,1,16384,1,
Layer 3,1024,8192,1,8192,1,16384,1,
Layer 4,256,256,1,256,1,256,1,
Layer 5,256,256,1,256,1,256,1,
Layer 6,16384,8192,1,8192,1,1024,1,
Layer 7,1024,8192,1,8192,1,65536,1,
Layer 8,65536,8192,1,8192,1,1024,1,
Layer 9,1024,8192,1,8192,1,1024,1,
Layer 10,1024,8192,1,8192,1,9000,1,
Layer 11,1,8192,1,8192,1,9000,1,
