Layer name, IFMAP Height, IFMAP Width, Filter Height, Filter Width, Channels, Num Filter, Strides, 
Emb0,1024,16,1,16,1,4,1, 
Emb1,1024,16,1,16,1,3,1, 
Emb2,1024,16,1,16,1,2,1, 
Bot_MLP0,1024,13,1,13,1,512,1, 
Bot_MLP1,1024,512,1,512,1,256,1, 
Bot_MLP2,1024,256,1,256,1,64,1, 
Bot_MLP3,1024,64,1,64,1,16,1, 
Top_MLP0,1024,22,1,22,1,512,1, 
Top_MLP1,1024,512,1,512,1,256,1, 
Top_MLP2,1024,256,1,256,1,1,1, 