Layer name,Ifmap height,ifmap width,filter height,filter width,channels,num filters,strides,
Embedding/Pooling,128,16,1,16,1,24,1,
MLP_Bottom_0,128,13,1,13,1,512,1,
MLP_Bottom_1,128,512,1,512,1,512,1,
MLP_Bottom_2,128,512,1,512,1,512,1,
MLP_Bottom_3,128,512,1,512,1,16,1,
MLP_Top_0,128,1040,1,1040,1,512,1,
MLP_Top_1,128,512,1,512,1,512,1,
MLP_Top_2,128,512,1,512,1,512,1,
