Layer name,Ifmap height,ifmap width,filter height,filter width,channel,num filters,strides,
Embedding/Pooling,16,128,1,128,1,24,1,
MLP_Bottom_0,13,128,1,128,1,512,1,
MLP_Bottom_1,512,128,1,128,1,512,1,
MLP_Bottom_2,512,128,1,128,1,512,1,
MLP_Bottom_3,512,128,1,128,1,16,1,
MLP_Top_0,1040,128,1,128,1,512,1,
MLP_Top_1,512,128,1,128,1,512,1,
MLP_Top_2,512,128,1,128,1,512,1,
